…
ause we have cat and dog classes return model ","date":"2019-11-28","objectID":"/2019-11-28-cat-or-dog-classification-dnn/:4:0","tags":["neural network","classification","transfer learning"],"title":"Cats vs Dogs Classification","uri":"/2019-11-28-cat-or-dog-classification-dnn/"},{"categories":["machine learning"],"content":"Fit the model model_base = build_cnn() model_base.name = 'base_cnn' model_base.summary() _________________________________________________________________ Layer (type) Output Shape Param # ================================================================= conv2d_1 (Conv2D) (None, 148, 148, 32) 896 _________________________________________________________________ batch_normalization_1 (Batch (None, 148, 148, 32) 128 _________________________________________________________________ max_pooling2d_1 (MaxPooling2 (None, 74, 74, 32) 0 _________________________________________________________________ dropout_1 (Dropout) (None, 74, 74, 32) 0 _________________________________________________________________ conv2d_2 (Conv2D) (None, 72, 72, 64) 18496 _________________________________________________________________ batch_normalization_2 (Batch (None, 72, 72, 64) 256 _________________________________________________________________ max_pooling2d_2 (MaxPooling2 (None, 36, 36, 64) 0 _________________________________________________________________ dropout_2 (Dropout) (None, 36, 36, 64) 0 _________________________________________________________________ conv2d_3 (Conv2D) (None, 34, 34, 128) 73856 _________________________________________________________________ batch_normalization_3 (Batch (None, 34, 34, 128) 512 _________________________________________________________________ max_pooling2d_3 (MaxPooling2 (None, 17, 17, 128) 0 _________________________________________________________________ dropout_3 (Dropout) (None, 17, 17, 128) 0 _________________________________________________________________ flatten_1 (Flatten) (None, 36992) 0 _________________________________________________________________ dense_1 (Dense) (None, 512) 18940416 _________________________________________________________________ batch_normalization_4 (Batch (None, 512) 2048 _________________________________________________________________ dropout_4 (Dropout) (None, 512) 0 _________________________________________________________________ dense_2 (Dense) (None, 1) 513 ================================================================= Total params: 19,037,121 Trainable params: 19,035,649 Non-trainable params: 1,472 _________________________________________________________________ from keras.optimizers import RMSprop model_base.compile(loss = 'binary_crossentropy', optimizer = optimizers.RMSprop(lr=1e-4), metrics=['accuracy']) # model_base.compile(optimizer='adam
…
ayers[0].trainable = False model.compile(optimizer=optimizers.RMSprop(lr=2e-5), loss='binary_crossentropy', metrics=['acc']) return model model_transfer = model_transfer_vgg16_chopped() model_transfer.summary() Downloading data from https://github.com/fchollet/deep-learning-models/releases/download/v0.1/vgg16_weights_tf_dim_ordering_tf_kernels_notop.h5 58892288/58889256 [==============================] - 2s 0us/step _________________________________________________________________ Layer (type) Output Shape Param # ================================================================= vgg16 (Model) (None, 4, 4, 512) 14714688 _________________________________________________________________ flatten_2 (Flatten) (None, 8192) 0 _________________________________________________________________ dense_3 (Dense) (None, 256) 2097408 _________________________________________________________________ dropout_5 (Dropout) (None, 256) 0 _________________________________________________________________ dense_4 (Dense) (None, 1) 257 ================================================================= Total params: 16,812,353 Trainable params: 2,097,665 Non-trainable params: 14,714,688 _________________________________________________________________ print(\"The number of trainable weights before freezing the convolutional layer = \",len(model_transfer.trainable_weights)) The number of trainable weights before freezing the convo
…
